…
2020-08-10 10:16:06,570 - root - INFO - USE_CUDA=True
2020-08-10 10:16:06,570 - root - INFO - USE_INVERSE_RELATION=False
2020-08-10 10:16:06,570 - root - INFO - USE_LABEL=False
2020-08-10 10:16:06,570 - root - INFO - USE_SELF_LOOP=True
2020-08-10 10:16:06,570 - root - INFO - WORD2ID=vocab_new.txt
2020-08-10 10:16:06,570 - root - INFO - WORD_DIM=300
2020-08-10 10:16:06,570 - root - INFO - WORD_EMB_FILE=word_emb_300d.npy
2020-08-10 10:16:06,570 - root - INFO - -------------------
2020-08-10 10:20:37,910 - root - INFO - Building Agent.
2020-08-10 10:20:42,692 - root - INFO - Architecture: TeacherAgent(
  (model): LabelModel(
    (relation_embedding): Embedding(6650, 200)
    (word_embedding): Embedding(20050, 300, padding_idx=20049)
    (entity_linear): Linear(in_features=100, out_features=50, bias=True)
    (relation_linear): Linear(in_features=200, out_features=50, bias=True)
    (lstm_drop): Dropout(p=0.3)
    (linear_drop): Dropout(p=0.2)
    (type_layer): TypeLayer(
      (linear_drop): Dropout(p=0.2)
      (kb_self_linear): Linear(in_features=50, out_features=50, bias=True)
    )
    (kld_loss): KLDivLoss()
    (bce_loss_logits): BCEWithLogitsLoss()
    (mse_loss): MSELoss()
    (instruction): LSTMInstruction(
      (lstm_drop): Dropout(p=0.3)
      (linear_drop): Dropout(p=0.2)
      (word_embedding): Embedding(20050, 300, padding_idx=20049)
      (node_encoder): LSTM(300, 50, batch_first=True)
      (cq_linear): Linear(in_features=100, out_features=50, bias=True)
      (ca_linear): Linear(in_features=50, out_features=1, bias=True)
      (question_linear0): Linear(in_features=50, out_features=50, bias=True)
      (question_linear1): Linear(in_features=50, out_features=50, bias=True)
      (question_linear2): Linear(in_features=50, out_features=50, bias=True)
      (question_linear3): Linear(in_features=50, out_features=50, bias=True)
    )
    (reasoning): GNNReasoning(
      (lstm_drop): Dropout(p=0.3)
      (linear_drop): Dropout(p=0.2)
      (softmax_d1): Softmax()
      (score_func): Linear(in_features=50, out_features=1, bias=True)
      (rel_linear0): Linear(in_features=50, out_features=50, bias=True)
      (e2e_linear0): Linear(in_features=100, out_features=50, bias=True)
      (rel_linear1): Linear(in_features=50, out_features=50, bias=True)
      (e2e_linear1): Linear(in_features=100, out_features=50, bias=True)
      (rel_linear2): Linear(in_features=50, out_features=50, bias=True)
      (e2e_linear2): Linear(in_features=100, out_features=50, bias=True)
      (rel_linear3): Linear(in_features=50, out_features=50, bias=True)
      (e2e_linear3): Linear(in_features=100, out_features=50, bias=True)
    )
    (back_reasoning): GNNBackwardReasoning(
      (lstm_drop): Dropout(p=0.3)
      (linear_drop): Dropout(p=0.2)
      (softmax_d1): Softmax()
      (score_func): Linear(in_features=50, out_features=1, bias=True)
      (rel_linear0): Linear(in_features=50, out_features=50, bias=True)
      (e2e_linear0): Linear(in_features=100, out_features=50, bias=True)
      (rel_linear1): Linear(in_features=50, out_features=50, bias=True)
      (e2e_linear1): Linear(in_features=100, out_features=50, bias=True)
      (rel_linear2): Linear(in_features=50, out_features=50, bias=True)
      (e2e_linear2): Linear(in_features=100, out_features=50, bias=True)
      (rel_linear3): Linear(in_features=50, out_features=50, bias=True)
      (e2e_linear3): Linear(in_features=100, out_features=50, bias=True)
    )
    (constraint_loss): MSELoss()
    (kld_loss_1): KLDivLoss()
  )
)
2020-08-10 10:20:42,692 - root - INFO - Agent params: 7509253.0
2020-08-10 10:20:42,692 - root - INFO - Building Agent.
2020-08-10 10:20:43,011 - root - INFO - Architecture: NsmAgent(
  (model): GNNModel(
    (relation_embedding): Embedding(6650, 200)
    (word_embedding): Embedding(20050, 300, padding_idx=20049)
    (entity_linear): Linear(in_features=100, out_features=50, bias=True)
    (relation_linear): Linear(in_features=200, out_features=50, bias=True)
    (lstm_drop): Dropout(p=0.3)
    (linear_drop): Dropout(p=0.2)
    (type_layer): TypeLayer(
      (linear_drop): Dropout(p=0.2)
      (kb_self_linear): Linear(in_features=50, out_features=50, bias=True)
    )
    (kld_loss): KLDivLoss()
    (bce_loss_logits): BCEWithLogitsLoss()
    (mse_loss): MSELoss()
    (reasoning): GNNReasoning(
      (lstm_drop): Dropout(p=0.3)
      (linear_drop): Dropout(p=0.2)
      (softmax_d1): Softmax()
      (score_func): Linear(in_features=50, out_features=1, bias=True)
      (rel_linear0): Linear(in_features=50, out_features=50, bias=True)
      (e2e_linear0): Linear(in_features=100, out_features=50, bias=True)
      (rel_linear1): Linear(in_features=50, out_features=50, bias=True)
      (e2e_linear1): Linear(in_features=100, out_features=50, bias=True)
      (rel_linear2): Linear(in_features=50, out_features=50, bias=True)
      (e2e_linear2): Linear(in_features=100, out_features=50, bias=True)
      (rel_linear3): Linear(in_features=50, out_features=50, bias=True)
      (e2e_linear3): Linear(in_features=100, out_features=50, bias=True)
    )
    (instruction): LSTMInstruction(
      (lstm_drop): Dropout(p=0.3)
      (linear_drop): Dropout(p=0.2)
      (word_embedding): Embedding(20050, 300, padding_idx=20049)
      (node_encoder): LSTM(300, 50, batch_first=True)
      (cq_linear): Linear(in_features=100, out_features=50, bias=True)
      (ca_linear): Linear(in_features=50, out_features=1, bias=True)
      (question_linear0): Linear(in_features=50, out_features=50, bias=True)
      (question_linear1): Linear(in_features=50, out_features=50, bias=True)
      (question_linear2): Linear(in_features=50, out_features=50, bias=True)
      (question_linear3): Linear(in_features=50, out_features=50, bias=True)
    )
  )
)
2020-08-10 10:20:43,011 - root - INFO - Agent params: 7478802.0
2020-08-10 10:20:43,310 - root - INFO - Load param of relation_embedding.weight, word_embedding.weight, entity_linear.weight, entity_linear.bias, relation_linear.weight, relation_linear.bias, type_layer.kb_self_linear.weight, type_layer.kb_self_linear.bias, instruction.word_embed
…
